NoiaBot/Resources/models/hey_anna.onnx (onnx, 205637 bytes, 9 tensors)

const_fold_opt__22 f4 [32, 1]
00000000: 9afa 663e fd7c 2c3e 7fe9 bd3c 456e a9be
00000010: e3cd b7bc e960 c3bc 9d96 a3be 1b81 92be
00000020: 6ac5 933d ead6 4e3e e38f 743d 8f14 94be
00000030: f7ff 983d 4b15 3a3d 9d8f a93d 4034 b13d
00000040: 5cb2 acbe daa9 c53d afe9 013e 80ff 913e
00000050: d2e9 ad3d 0202 dbbc 11ee 98be eb51 63bd
00000060: 9223 acbe 04e9 9fbe 13a1 d23d 06f8 a1be
00000070: 902f 99be fe45 f33d fb8e ed3c 281f 413e
0.22556534 0.16844554 0.023182629 -0.3309194 -0.022437042 -0.023849921 -0.31950846 -0.28614125
0.07215388 0.2019917 0.059707534 -0.28921935 0.074706964 0.045430463 0.08279345 0.08652544
-0.33729827 0.09651537 0.126868 0.28515244 0.08491863 -0.026734356 -0.2986913 -0.055498045
-0.33620888 -0.31232464 0.10284629 -0.3163454 -0.299191 0.11878584 0.028998842 0.18859541

const_fold_opt__21 f4 [1536, 32]
00000000: e124 143c 248f 09bc c8fc 3d3d f56f 823d
00000010: 57d0 6e3c 4dd3 da3c 506b ceba ff63 d53c
00000020: 081e 363c 24e9 823c 8c99 c0bb f488 373b
00000030: a373 87bb 0862 59bb 322a ea3c 2a7b 57bc
00000040: 3f67 043c 1070 c43c b58b bd3c be6d 2fbc
00000050: 0ffc 253d 75f4 05bd 66ae 0a3c 42f2 293c
00000060: 9c4e 76bc 6350 6ebc e415 243d 4d83 d73b
00000070: dfa5 053d fab0 f3bc 166a 8ebc 98b6 d4bb
00000080: 9f8d b63c 02ac 493c deb4 df3b 2ce3 8b3c
00000090: 5e84 fb3b 3a73 a8bc 9237 9c3c 95ec 063c
000000a0: 6aa8 87bc ac81 fb3a dcf6 123b 8d68 4a3c
000000b0: a403 873c df6a abbc 6fa6 d2ba 8ab3 b13c
000000c0: a87e 1a3c 110e 573c 3c2d c23c df21 433c
000000d0: 0f4b 953c f4f7 ac39 974b 93bc a9e9 233b
000000e0: 338c 5abc 4c87 c9bc dcff 9d3b 39f1 713c
000000f0: 258b 52bc 5eb7 503c 25de d43b c4e4 b43c
00000100: e18e 033c fbe0 b4bc 7bab 4e3c 29ca 1e3c
00000110: 47b4 b5bc 6cb6 e2bb d9ca afbc 5391 d93c
00000120: c4a6 833c cd20 f23b 56c6 983b 16f6 753b
00000130: a2cf 8f3b c840 75bc 21d5 b4bc 0e4b 00bd
00000140: b902 743c 2fc5 163d e72c 7b3c 3df3 823c
00000150: c7a2 10bd a570 ae3c 8174 cb3c 0f8e d0bb
00000160: bd4e 6b3b 829e dc3b fb6f a13c d2b6 0ebc
00000170: 12b5 793a 4db6 3bbb 154e be3c 4f3c 0339
00000180: 2c64 a9bc c4a7 8dbc 1b68 1a3c 8810 7b3d
00000190: 29c2 8dbc 8cfe 6d3c ffa8 ddba b5fe 1cbc
000001a0: 0c62 c3bc 73b1 9cbb c3fb a2bc 2921 1bbc
000001b0: 5480 c03b 2c12 61bc 1cde 853c 79ce 18bc
000001c0: 0cfc b3b9 de28 e93c f983 123c 6ca2 da3c
000001d0: 444e 5bbc d3f7 bfbc 44bc fcbb 77bb 933c
000001e0: 0e0c 14bb 6c54 8cbc 0c52 0c3d 9a0b fb39
000001f0: 0703 b53c a757 efbc 8f04 54bc 27d5 6d3c
00000200: c1c7 db3c 80cc d6bc c2ef ce3c 6111 d53c
00000210: a47f 413c 6d63 5c3c 3a01 b33c 4873 51bc
00000220: c3c1 a3bb 9d74 b73a 77aa e23b ee24 263c
00000230: 31cf a6bc a885 953c 91e9 243b 880d 643c
00000240: 3d36 103c 5132 f03a f29f 223c cb04 3a3c
00000250: 5f92 2b3d 0fa2 0b3b 88e8 97bc 3426 7bbc
00000260: ac28 38bc b046 21ba 6b9b 223d e6c0 6c3c
00000270: f494 043d 0806 983c 62a5 bc3b 11f4 be3c
00000280: 2f99 35bb b8e9 66bc d47e 24bc 32c6 e43b
00000290: f4d1 a43c 250f 9a3c 214f cb3b cb08 d4bb
000002a0: de5d a3bc d2a5 0abc c348 a13c de14 afbb
000002b0: 1696 9dbc 0107 ae3b 20c7 a3bc 365f 243c
000002c0: 4590 b03c d8e0 22ba 7278 8e3c 435c 24bc
000002d0: 3369 f63b 5a30 b93c 48ce 9abc c145 7dbc
000002e0: 1ad1 df3c 0892 d53c 477a 763c 2cc2 4cba
000002f0: 007d bcbc 5353 4ebc a154 3ebb d094 963c
00000300: f06a 42bc 368d bebc 5175 a0bc b549 02bb
00000310: b4d4 933b 15db a13c 8c06 703c 35bf 463c
00000320: 048e cd3c fdcf 3a3c d4f5 6a3c 34a9 923c
00000330: 3205 90ba 317a 59bb 5e14 d83c 43cc 323c
00000340: c350 82ba 0cd2 18bc 9bf7 0e3c 3822 cf3b
00000350: 7afd 333c 0615 21ba a174 25bc d421 a03c
00000360: 74a7 c5ba 6d6c 6ebc abf4 c23c 11e7 453c
00000370: 045c d43a 2486 91bc c840 3c3c ce84 8b3c
00000380: 2f8f 5abb ffb3 983c 8f10 eabc 61f8 d6bc
00000390: 49f5 38bc c61d 69ba 40d9 87bb f4af 7c3c
000003a0: 22b4 eabb 8c8c 74bc a0c9 30bb 810a 30bc
000003b0: 49fe 43bc 1fc7 3ebb 211b f0bc b73b 96bb
000003c0: 106c 303c 63ee e7bb 0f06 a0bc 014b 92bb
000003d0: b23a 10bd 382d 93bb 01c0 983b 3a3f a0bb
000003e0: ef87 313c 13ca 043c b71e 07bd fb1d 293c
000003f0: 40e9 fdbc af80 773c 756f 45bc 231a eebb
0.009041996 -0.008395944 0.04638365 0.0636901 0.014576039 0.026712084 -0.0015748534 0.026048658
0.011115558 0.01598031 -0.005877679 0.0028005214 -0.004133658 -0.0033170003 0.028584573 -0.013151923
0.008081256 0.023979217 0.023137907 -0.010707317 0.040523585 -0.032703836 0.008464431 0.0103727
-0.01503339 -0.014545533 0.04005994 0.0065769316 0.03262889 -0.029747475 -0.01738457 -0.0064914934
0.022284327 0.012309076 0.006826981 0.017076097 0.0076756915 -0.020562757 0.019069467 0.0082351165
-0.016559798 0.0019188426 0.0022424972 0.012354028 0.016481228 -0.020924984 -0.001607133 0.021692056
0.009429611 0.013125912 0.02370321 0.011909931 0.018224267 0.00032991136 -0.01798038 0.0025011098
-0.01333909 -0.024600647 0.0048217606 0.014766985 -0.012850557 0.012739031 0.0064962083 0.02208174
0.00802967 -0.022079935 0.012614126 0.009691753 -0.02218069 -0.006918719 -0.02145903 0.026558554
0.016070731 0.007389164 0.0046623154 0.0037530712 0.0043887654 -0.014969058 -0.022074284 -0.031321578
0.014893227 0.036809143 0.01533053 0.015985126 -0.035311487 0.021293947 0.024835827 -0.006364591
0.0035905086 0.006732763 0.019706717 -0.00871058 0.0009525578 -0.0028642595 0.023230592 0.000125156
-0.020677648 -0.017291911 0.009424235 0.061295062 -0.017304497 0.014526021 -0.0016911327 -0.009582211
-0.023850463 -0.004781896 -0.01989544 -0.009468355 0.005874673 -0.013737243 0.016341262 -0.009326571
-0.0003432933 0.02846187 0.008942598 0.026688777 -0.013385359 -0.023433601 -0.0077128727 0.018033726
-0.0022590193 -0.0171301 0.034257933 0.00047883095 0.02209617 -0.0292166 -0.01294054 0.0145161515
0.026828649 -0.02622056 0.02526081 0.026009263 0.011810217 0.013451439 0.02185117 -0.012783833
-0.0049974634 0.0013996545 0.0069172936 0.010140641 -0.020362468 0.018252209 0.002516363 0.013919242
0.008801994 0.0018325542 0.009925829 0.011353682 0.041887637 0.0021306311 -0.018543497 -0.015328933
-0.011240166 -0.0006152196 0.039699 0.014450287 0.032368615 0.018557563 0.00575702 0.02330974
-0.0027709713 -0.014093809 -0.010040004 0.0069816345 0.020119645 0.01880605 0.0062045013 -0.0064707748
-0.01994222 -0.008462386 0.019688016 -0.0053430637 -0.019236606 0.0053108935 -0.019992411 0.010032466
0.021553168 -0.0006213314 0.017391417 -0.0100317625 0.007519865 0.022606064 -0.01889719 -0.015458525
0.027321387 0.02607061 0.015043802 -0.0007810916 -0.023008823 -0.012593108 -0.0029042142 0.018381506
-0.011866316 -0.023260694 -0.01958719 -0.0019880359 0.00451144 0.019757787 0.014649998 0.012130548
0.025092132 0.011402127 0.014340837 0.017902948 -0.0010987876 -0.0033184404 0.0263769 0.010912958
-0.0009942282 -0.009327423 0.008726026 0.006321218 0.0109857265 -0.00061447953 -0.010098607 0.01954738
-0.0015079812 -0.014552218 0.023798307 0.012079016 0.0016201739 -0.017764159 0.011490054 0.0170311
-0.0033349504 0.018640516 -0.028572349 -0.026241483 -0.011288949 -0.0008892681 -0.0041457713 0.01542281
-0.007162587 -0.014926087 -0.0026975647 -0.010744692 -0.011962482 -0.0029110385 -0.029309811 -0.0045847553
0.010767952 -0.0070779785 -0.019534139 -0.0044645076 -0.035212226 -0.0044914745 0.0046615605 -0.0048903497
0.010835632 0.008104819 -0.032988276 0.010322089 -0.030995011 0.015106364 -0.012050499 -0.0072662993

const_fold_opt__20 f4 [32, 32]
00000000: d458 3a3c 4042 f0bd 2a36 c43d c939 073e
00000010: 2099 a53d 20fa cbbd 1f54 f7bd f9c4 113b
00000020: a6f9 e23d 5584 31be e722 babd 4807 05be
00000030: b4cb da3d 7e5e f83d a5a4 77bc 48db b5bd
00000040: 08b5 22bc b648 1f3e 1066 8c3c 1187 26be
00000050: 30fa 34be fba6 1cbb cc25 cf3d a80e 99bd
00000060: d785 1fbe 8e61 2bbe 3af4 b63d 4fac c13d
00000070: a92b aabd 9c5e ca3d 31a9 da3d 5a4d 7c3d
00000080: 3dda 1bbd 55dd 1cbe 15e8 b4bd c292 2d3e
00000090: b0c2 bdbd 6612 e53d e2bb d93c 8f72 123e
000000a0: 34b7 1c3e 52aa 48bd 6fc5 033e 7767 a53c
000000b0: 8675 553c b9bd 883d 21ec b6bc 9bc8 26bd
000000c0: 1d5d 9d3d 0be6 c7bd dc88 8bbd 2aac 983d
000000d0: c98a 1cbc edf4 49bc 466e e43d e4a5 93bc
000000e0: 627a 1f3e 744e c3bd 09f9 0bbd da6f b93d
000000f0: ecf5 ff3d bff5 673c ff14 073e 9ecf 1f3e
00000100: 0066 90bd 430f 253e 68ea cebd 1a06 0dbe
00000110: 2233 a4bd 8dba 193e ff5e ae3d d0f7 4cbd
00000120: 14ca dbbd bf10 ceba 6e3e 503e 72c3 b33c
00000130: de4c bd3d bed3 e7bd 6798 9f3d 0387 b23d
00000140: 5212 3cbe 8e50 203e 8778 613d e870 9abd
00000150: 8a50 423d dc91 ff3d 8b18 4bbe f0d4 62bd
00000160: da61 27be 21f0 66be 05b3 b83d cd89 283c
00000170: 34ff 28be 5545 da3d 7643 e9bb e40f 933d
00000180: 1c75 4e3e 0e75 ecba 3fe1 e6bd 7bba e03d
00000190: cfe7 373b 29a3 be3d a748 e7bd 88e3 82bd
000001a0: 26b6 0cb9 aeec 883d d764 cabd bfe0 05bd
000001b0: a3c2 3a3e 74ee c7bd 54a3 e9bc fcf9 933d
000001c0: bce4 8e3d 888a 25be 75af 0e3e 6e28 853e
000001d0: d4fb 6e3d 3d27 4abd 2cbb 733d 1a5a 003e
000001e0: 2cd2 7cba 8c5c f43d c27d 12bd 8c67 083e
000001f0: b802 063d d42a 493d e73f 2fbe 30c0 a33d
00000200: a283 0dbd f6ef c23d 2b59 0fbd 0f4e 50bd
00000210: 0592 423e 36a0 bd3c 2539 053d b888 1c3e
00000220: 1fe4 563d ebcb 1d3e cb53 ea3d 2c46 80bc
00000230: 6834 55bb b678 75bd 13fd 533d 21f9 253e
00000240: 8bd8 45be daee d4bd a5b6 833d c298 35bd
00000250: 1793 513e 75b6 153d a05b 063e c176 babc
00000260: 6671 39be 06e3 b3bd 8385 373e dd08 3c3d
00000270: e7d6 bf3b d7ce 233e 9a2a e7bc 3f3d 9bbd
00000280: 0f0b 213e 2a71 8dbd aa02 4ebc 57df 643d
00000290: aa31 03bd aa11 02be bb63 53bd 6a4c 233d
000002a0: b512 e0bc 4dd3 29bd 8e78 84bc 0739 8bbd
000002b0: 9b30 b63c 67db ed3d 4c23 c13a 700f cabc
000002c0: 55df bb3d e5e4 3f3d d9a6 db3c a871 14be
000002d0: b73e d1bc f1fb 0dbe b9ee 713d 0503 e03d
000002e0: 5d98 153e afa0 1e3c 6908 f7bd 97ca 1c3e
000002f0: a810 303e 8802 42bd 3a6b c83c 3383 d03d
00000300: 1957 20bd d49d f63d 19d7 b8bd 5e05 dabb
00000310: 64b1 fe3d a99c f9bd 57ca 86bc 61c4 753d
00000320: 2fea 69bd 2f8c 093e 9afa 123e 6656 243e
00000330: b88b 80bc 55f4 733d d6fb e4bd c6dd 00be
00000340: 5a67 b0bd 874d 6bbd e210 b4bd bf12 a5bd
00000350: 6f7c e43d 844f b83b 2f35 253e a4ee 82bd
00000360: a8db 3a3d 47d9 73bd f526 42bc 77cd 01bc
00000370: e26f bd3b f529 55bd c07a 10bd f860 fcbc
00000380: 0124 95bc 796c 5bba c749 00be cbe2 0bbe
00000390: a71d 99bd c740 abbd 088f 97bd a5b2 53bd
000003a0: 9909 04be dc19 febc cf76 0abe 51d4 c63d
000003b0: ecb7 ce3d a476 543d 7323 133e aebc 17bb
000003c0: 697c 983d 4160 f9bd cc75 cc3d 61f3 ae3d
000003d0: 65fb 973d 8339 0d3e 9466 4dbd bf63 0dbe
000003e0: e00d 66bd 75ee 0c3e d3da 3a3d ce42 f03d
000003f0: 9da2 04be 476e 363e d778 59bd eb0c 2ebd
0.011373717 -0.11731386 0.095806435 0.13205637 0.08085847 -0.09959817 -0.12076592 0.002224265
0.11082773 -0.17335637 -0.09088688 -0.12991059 0.106833845 0.12127398 -0.015114938 -0.08879715
-0.0099308565 0.15555081 0.017138511 -0.16262461 -0.17673564 -0.002390324 0.10114631 -0.074734986
-0.155784 -0.16736433 0.08933301 0.094566934 -0.08309109 0.098813266 0.10676802 0.061597206
-0.038049925 -0.15318806 -0.08833329 0.16950515 -0.09265649 0.1118515 0.026578847 0.14301513
0.15304261 -0.048990555 0.12868284 0.020190937 0.013028508 0.06676812 -0.022329392 -0.040718656
0.076837756 -0.09760674 -0.06813213 0.07454713 -0.009554573 -0.012326461 0.111538455 -0.018023439
0.15574029 -0.09536448 -0.034173045 0.09054537 0.12498078 0.0141577115 0.13191603 0.15606543
-0.07050705 0.16119103 -0.10103303 -0.13771859 -0.08017565 0.1501257 0.08514213 -0.05004102
-0.10731903 -0.0015721543 0.20336315 0.021943782 0.09243177 -0.113196835 0.0779274 0.08717158
-0.18366364 0.15655729 0.055046584 -0.075410664 0.04744009 0.12478992 -0.19833581 -0.055378854
-0.16345921 -0.2255254 0.0901852 0.0102867605 -0.16503602 0.10657755 -0.0071186377 0.07180765
0.20161861 -0.0018040256 -0.11273431 0.10973068 0.0028061753 0.09308464 -0.11293154 -0.063910544
-0.00013419296 0.06685768 -0.09882515 -0.032685038 0.1823831 -0.09762278 -0.028520264 0.07225415
0.06977221 -0.16166127 0.13934119 0.26007408 0.05834563 -0.049353827 0.059504673 0.12534371
-0.0009644355 0.119317144 -0.035764463 0.1332075 0.032717437 0.04911311 -0.1711422 0.07995641
-0.034549363 0.09518425 -0.034997147 -0.050855692 0.19001015 0.023147684 0.0325252 0.15286529
0.052463647 0.1540982 0.114417635 -0.01565846 -0.0032532457 -0.059929572 0.051755022 0.16208316
-0.19320886 -0.1039712 0.06431321 -0.044335134 0.20466267 0.036550958 0.1312089 -0.022761704
-0.18109664 -0.08783536 0.17922024 0.04590689 0.005854476 0.15996872 -0.028218556 -0.07580041
0.15726875 -0.0690635 -0.012573877 0.055877056 -0.032029785 -0.12702051 -0.051608782 0.039867796
-0.02735267 -0.041461278 -0.016170766 -0.067979865 0.022239974 0.11614113 0.0014735251 -0.024665564
0.091734566 0.04684915 0.026812958 -0.14496481 -0.0255426 -0.1386564 0.059065554 0.10938076
0.14608903 0.009681865 -0.12062151 0.15311657 0.17193854 -0.047365695 0.024465192 0.10181274
-0.039145563 0.12041822 -0.090254016 -0.006653472 0.12436178 -0.12188084 -0.016453905 0.060001735
-0.0571081 0.13432382 0.1435341 0.16048583 -0.015691623 0.059559185 -0.111808464 -0.125846
-0.08613463 -0.057446983 -0.08792283 -0.08060216 0.11156546 0.0056247134 0.16133569 -0.06393173
0.045619637 -0.059533384 -0.011850108 -0.007922522 0.0057811597 -0.052041966 -0.035273314 -0.030807957
-0.018205645 -0.00083703507 -0.12528144 -0.13660733 -0.07476359 -0.08361965 -0.07400328 -0.05168404
-0.12894286 -0.03101819 -0.13521884 0.09708465 0.10093674 0.051870957 0.14368992 -0.0023153233
0.07445604 -0.12176562 0.099834055 0.085425146 0.074209966 0.1379147 -0.050146654 -0.13807581
-0.056165576 0.13762839 0.045618843 0.11731492 -0.12952657 0.17815505 -0.053093757 -0.04249279

Const_7 f4 [32]
00000000: d66c 643d 6758 e3ba 7718 a1bc 924d a33e
00000010: 6d47 133c 85b8 55bd 798c 783e 6088 893e
00000020: 1142 1abc a049 833d b6d4 b03a d25a 953e
00000030: bc29 883c cb26 e7bb 8f12 443d ecfa 8c3d
00000040: 03e3 a23e f0b4 72bb e29d 7b3d e521 b23d
00000050: 1030 6a3c 569e 28bc bf9f 6f3e decd 1dbd
00000060: b2d2 6c3e a181 9a3e b507 ad3c d46e 9c3e
00000070: 74a0 863e e7ad bb3c 7023 21bc 2392 1e3c
0.055767857 -0.0017345072 -0.019664986 0.3189512 0.008989197 -0.052177925 0.24272336 0.26861858
-0.0094151655 0.06410527 0.0013491127 0.29170853 0.016621463 -0.007054185 0.04786926 0.06883797
0.3181382 -0.0037034117 0.061429866 0.08697871 0.014293686 -0.0102916565 0.23400782 -0.03852641
0.23127249 0.30177024 0.021121839 0.30553305 0.2629429 0.022910072 -0.009835109 0.009678396

Const_6 f4 [32]
00000000: 802f 8d3f baad 803f 68b7 7d3f 3703 b33f
00000010: 09e2 803f 43cb 743f b049 9d3f e306 a33f
00000020: e373 7e3f fdfd 883f 1dd2 803f d7e8 a93f
00000030: 2955 843f f5c0 7e3f a06d 863f c5f0 8a3f
00000040: c02b b23f c03c 803f 8d2a 893f 2d88 903f
00000050: e320 833f f6f6 7d3f 0951 983f 5f97 7a3f
00000060: 08fc 993f 14df ad3f f7db 823f 2bc5 ae3f
00000070: 6e97 a23f 7ce3 823f a19f 7e3f 70f6 813f
1.1030121 1.0053017 0.9910798 1.3985356 1.006898 0.9562265 1.2288113 1.2736477
0.9939558 1.0702511 1.0064121 1.3274182 1.0338489 0.9951318 1.0502205 1.0854727
1.3919601 1.001854 1.071611 1.1291558 1.0244411 0.9920496 1.189973 0.97887224
1.2030039 1.3583703 1.0223378 1.3653921 1.2702463 1.0225673 0.99462324 1.0153332

Const_5 f4 [32]
00000000: 2714 d1bd 6a89 33be 98bb 723d abbe 17be
00000010: d28c 2dbe 8867 94bd f689 073e 608b 0c3e
00000020: aa13 48bd 53f3 d0bb 7de5 903c d9cc 88bc
00000030: f73a ac3d 2fa8 c4bd 246f ddbd a89e 47bd
00000040: 0d63 4fbd 52a9 073e a1c0 04be 96db ebbd
00000050: 365d d13d 7f6f 41bb 09ee f53d 6418 eabc
00000060: c279 1b3e 18ff 84bd adce 153e 2bfa 303d
00000070: d19b 09be 2c01 c8bd 96d1 0b3e 9132 2b3e
-0.10208922 -0.17532888 0.059260935 -0.14818828 -0.1694825 -0.072463095 0.13236222 0.13725042
-0.048846878 -0.0063766628 0.017687554 -0.016699241 0.08409684 -0.09602391 -0.10812214 -0.04873529
-0.05063157 0.13248184 -0.12964107 -0.11516492 0.10222857 -0.002951592 0.12008292 -0.028576083
0.15183166 -0.06493968 0.14629622 0.04320733 -0.13438345 -0.097658485 0.1365417 0.16718508

Const_3 f4 [32]
00000000: 7fd5 79bc 3273 f7bb 6363 043c 6bea 573d
00000010: 9513 2a39 1b05 21bc 3c41 49bc 79a8 49bc
00000020: 99a2 8fbc 28ad d9bb f470 f33b d730 9dbc
00000030: 5528 80bc d88c cebb ea20 40bc 1c34 8d3b
00000040: 2c5d 343b 4bcf ae3c 3942 d6bb d91c a13c
00000050: 2b95 98bc c6c6 293b 0460 52bc 4ff5 5f3c
00000060: b83d 1a3c ff89 353c 27f5 7b3c 0f78 6eba
00000070: 6b1f cc3a 42b8 393c 999e 773b 99d3 3cbc
-0.015248655 -0.007551574 0.008080336 0.052713793 0.00016219758 -0.009827877 -0.0122836195 -0.012308233
-0.017533587 -0.0066429563 0.0074292365 -0.019188328 -0.015644232 -0.006303411 -0.011726597 0.0043091904
0.0027521355 0.02133908 -0.006538656 0.019667076 -0.018625816 0.0025905832 -0.012840275 0.013669326
0.009414129 0.011080264 0.015378273 -0.00090968696 0.0015573328 0.011335434 0.003778374 -0.011525058

Const_2 f4 [32]
00000000: 33f2 7d3f 1858 7b3f 22bc 833f 8511 873f
00000010: 0781 823f 957b 7c3f 576c 7b3f d4f7 7e3f
00000020: 7631 7f3f b8de 7d3f f460 803f 8e01 7d3f
00000030: b750 7e3f 9994 7c3f aca1 7c3f be6d 743f
00000040: a8db 733f 1b2f 803f c4f4 7b3f 0e82 7c3f
00000050: 3bc5 7c3f 3f0a 813f 584d 7f3f b127 783f
00000060: 21c4 833f eaef 803f 2709 863f de97 7d3f
00000070: 07d4 7f3f c5cc 803f 7d7f 823f 7bbd 7c3f
0.9919769 0.98181295 1.0291789 1.0552222 1.0195626 0.9862607 0.9821219 0.99596906
0.99684846 0.99167967 1.0029588 0.988305 0.9934191 0.9866424 0.9868419 0.95479953
0.95257044 1.0014375 0.9842036 0.9863595 0.9873845 1.0081252 0.9972739 0.96935564
1.0294229 1.0073216 1.0471543 0.99059856 0.99932903 1.0062491 1.0195156 0.98726624

Const_1 f4 [32]
00000000: 023f 503c 032b 333c 8ac9 b0bc de6c a0bc
00000010: dc67 9bba 0321 893c 73a2 34bc 9764 fdbb
00000020: 9498 a1bc 8af7 dbbc e812 d3bb 82f9 e0bb
00000030: 7008 45bc d571 b0bc 5785 c5bc b454 d5ba
00000040: 1bf3 80bc 0c33 8d3c 72a7 643c 562f 7c3c
00000050: cdbb 66bc c70e a2bc 28ea c6bc 6ec3 a13c
00000060: 3fc4 a53b dc9d af3b c452 3bbb dedf 31bc
00000070: 96db 11bc 45e3 e63c 5034 10bc 2995 acbb
0.012710335 0.010935548 -0.021580476 -0.019583162 -0.0011856514 0.016739374 -0.011025059 -0.0077329385
-0.019726075 -0.026851434 -0.006441463 -0.006865681 -0.012025937 -0.021538654 -0.024111433 -0.0016275854
-0.015740922 0.017236255 0.013955938 0.015392145 -0.014082861 -0.019782437 -0.024281576 0.019746508
0.0050587947 0.0053593945 -0.0028583268 -0.010856597 -0.008902451 0.028184542 -0.008801535 -0.0052668047
